…
['GPU:0', 'GPU:1', 'GPU:2', 'GPU:3']
Compiling and returning model
Model: "TransformerEncoderMLP"
__________________________________________________________________________________________________
 Layer (type)                   Output Shape         Param #     Connected to                     
==================================================================================================
 input_1 (InputLayer)           [(None, 19, 18)]     0           []                               
                                                                                                  
 positional_embedding (Position  (None, 19, 18)      0           ['input_1[0][0]']                
 alEmbedding)                                                                                     
                                                                                                  
 dropout (Dropout)              (None, 19, 18)       0           ['positional_embedding[0][0]']   
                                                                                                  
 layer_normalization (LayerNorm  (None, 19, 18)      36          ['dropout[0][0]']                
 alization)                                                                                       
                                                                                                  
 multi_head_attention (MultiHea  (None, 19, 18)      8118        ['layer_normalization[0][0]',    
 dAttention)                                                      'layer_normalization[0][0]',    
                                                                  'layer_normalization[0][0]']    
                                                                                                  
 add (Add)                      (None, 19, 18)       0           ['dropout[0][0]',                
                                                                  'multi_head_attention[0][0]']   
                                                                                                  
 layer_normalization_1 (LayerNo  (None, 19, 18)      36          ['add[0][0]']                    
 rmalization)                                                                                     
                                                                                                  
 dense (Dense)                  (None, 19, 72)       1368        ['layer_normalization_1[0][0]']  
                                                                                                  
 dense_1 (Dense)                (None, 19, 18)       1314        ['dense[0][0]']                  
                                                                                                  
 dropout_1 (Dropout)            (None, 19, 18)       0           ['dense_1[0][0]']                
                                                                                                  
 add_1 (Add)                    (None, 19, 18)       0           ['add[0][0]',                    
                                                                  'dropout_1[0][0]']              
                                                                                                  
 layer_normalization_2 (LayerNo  (None, 19, 18)      36          ['add_1[0][0]']                  
 rmalization)                                                                                     
                                                                                                  
 multi_head_attention_1 (MultiH  (None, 19, 18)      8118        ['layer_normalization_2[0][0]',  
 eadAttention)                                                    'layer_normalization_2[0][0]',  
                                                                  'layer_normalization_2[0][0]']  
                                                                                                  
 add_2 (Add)                    (None, 19, 18)       0           ['add_1[0][0]',                  
                                                                  'multi_head_attention_1[0][0]'] 
                                                                                                  
 layer_normalization_3 (LayerNo  (None, 19, 18)      36          ['add_2[0][0]']                  
 rmalization)                                                                                     
                                                                                                  
 dense_2 (Dense)                (None, 19, 72)       1368        ['layer_normalization_3[0][0]']  
                                                                                                  
 dense_3 (Dense)                (None, 19, 18)       1314        ['dense_2[0][0]']                
                                                                                                  
 dropout_2 (Dropout)            (None, 19, 18)       0           ['dense_3[0][0]']                
                                                                                                  
 add_3 (Add)                    (None, 19, 18)       0           ['add_2[0][0]',                  
                                                                  'dropout_2[0][0]']              
                                                                                                  
 layer_normalization_4 (LayerNo  (None, 19, 18)      36          ['add_3[0][0]']                  
 rmalization)                                                                                     
                                                                                                  
 multi_head_attention_2 (MultiH  (None, 19, 18)      8118        ['layer_normalization_4[0][0]',  
 eadAttention)                                                    'layer_normalization_4[0][0]',  
                                                                  'layer_normalization_4[0][0]']  
                                                                                                  
 add_4 (Add)                    (None, 19, 18)       0           ['add_3[0][0]',                  
                                                                  'multi_head_attention_2[0][0]'] 
                                                                                                  
 layer_normalization_5 (LayerNo  (None, 19, 18)      36          ['add_4[0][0]']                  
 rmalization)                                                                                     
                                                                                                  
 dense_4 (Dense)                (None, 19, 72)       1368        ['layer_normalization_5[0][0]']  
                                                                                                  
 dense_5 (Dense)                (None, 19, 18)       1314        ['dense_4[0][0]']                
                                                                                                  
 dropout_3 (Dropout)            (None, 19, 18)       0           ['dense_5[0][0]']                
                                                                                                  
 add_5 (Add)                    (None, 19, 18)       0           ['add_4[0][0]',                  
                                                                  'dropout_3[0][0]']              
                                                                                                  
 layer_normalization_6 (LayerNo  (None, 19, 18)      36          ['add_5[0][0]']                  
 rmalization)                                                                                     
                                                                                                  
 multi_head_attention_3 (MultiH  (None, 19, 18)      8118        ['layer_normalization_6[0][0]',  
 eadAttention)                                                    'layer_normalization_6[0][0]',  
                                                                  'layer_normalization_6[0][0]']  
                                                                                                  
 add_6 (Add)                    (None, 19, 18)       0           ['add_5[0][0]',                  
                                                                  'multi_head_attention_3[0][0]'] 
                                                                                                  
 layer_normalization_7 (LayerNo  (None, 19, 18)      36          ['add_6[0][0]']                  
 rmalization)                                                                                     
                                                                                                  
 dense_6 (Dense)                (None, 19, 72)       1368        ['layer_normalization_7[0][0]']  
                                                                                                  
 dense_7 (Dense)                (None, 19, 18)       1314        ['dense_6[0][0]']                
                                                                                                  
 dropout_4 (Dropout)            (None, 19, 18)       0           ['dense_7[0][0]']                
                                                                                                  
 add_7 (Add)                    (None, 19, 18)       0           ['add_6[0][0]',                  
                                                                  'dropout_4[0][0]']              
                                                                                                  
 layer_normalization_8 (LayerNo  (None, 19, 18)      36          ['add_7[0][0]']                  
 rmalization)                                                                                     
                                                                                                  
 multi_head_attention_4 (MultiH  (None, 19, 18)      8118        ['layer_normalization_8[0][0]',  
 eadAttention)                                                    'layer_normalization_8[0][0]',  
                                                                  'layer_normalization_8[0][0]']  
                                                                                                  
 add_8 (Add)                    (None, 19, 18)       0           ['add_7[0][0]',                  
                                                                  'multi_head_attention_4[0][0]'] 
                                                                                                  
 layer_normalization_9 (LayerNo  (None, 19, 18)      36          ['add_8[0][0]']                  
 rmalization)                                                                                     
                                                                                                  
 dense_8 (Dense)                (None, 19, 72)       1368        ['layer_normalization_9[0][0]']  
                                                                                                  
 dense_9 (Dense)                (None, 19, 18)       1314        ['dense_8[0][0]']                
                                                                                                  
 dropout_5 (Dropout)            (None, 19, 18)       0           ['dense_9[0][0]']                
                                                                                                  
 add_9 (Add)                    (None, 19, 18)       0           ['add_8[0][0]',                  
                                                                  'dropout_5[0][0]']              
                                                                                                  
 layer_normalization_10 (LayerN  (None, 19, 18)      36          ['add_9[0][0]']                  
 ormalization)                                                                                    
                                                                                                  
 multi_head_attention_5 (MultiH  (None, 19, 18)      8118        ['layer_normalization_10[0][0]', 
 eadAttention)                                                    'layer_normalization_10[0][0]', 
                                                                  'layer_normalization_10[0][0]'] 
                                                                                                  
 add_10 (Add)                   (None, 19, 18)       0           ['add_9[0][0]',                  
                                                                  'multi_head_attention_5[0][0]'] 
                                                                                                  
 layer_normalization_11 (LayerN  (None, 19, 18)      36          ['add_10[0][0]']                 
 ormalization)                                                                                    
                                                                                                  
 dense_10 (Dense)               (None, 19, 72)       1368        ['layer_normalization_11[0][0]'] 
                                                                                                  
 dense_11 (Dense)               (None, 19, 18)       1314        ['dense_10[0][0]']               
                                                                                                  
 dropout_6 (Dropout)            (None, 19, 18)       0           ['dense_11[0][0]']               
                                                                                                  
 add_11 (Add)                   (None, 19, 18)       0           ['add_10[0][0]',                 
                                                                  'dropout_6[0][0]']              
                                                                                                  
 dense_12 (Dense)               (None, 19, 128)      2432        ['add_11[0][0]']                 
                                                                                                  
 dense_13 (Dense)               (None, 19, 256)      33024       ['dense_12[0][0]']               
                                                                                                  
 dense_14 (Dense)               (None, 19, 512)      131584      ['dense_13[0][0]']               
                                                                                                  
 dense_15 (Dense)               (None, 19, 18)       9234        ['dense_14[0][0]']               
                                                                                                  
==================================================================================================
Total params: 241,506
Trainable params: 241,506
Non-trainable params: 0
__________________________________________________________________________________________________
…
